…
total feature: 24, ids: ['103', '104', '105', '106', '107', '108', '109', '110', '303', '304', '100', '101', '102', '112', '114', '115', '116', '117', '118', '119', '120', '122', '301', '302']
Loading statistical features from cache: /mnt/hdd/zhangyang/alqq_genrec/USARCACHE/statistical_features.pkl
item feature dim: 
item_id : 96, 100 : 112, 101 : 128, 102 : 160, 112 : 176, 114 : 192, 115 : 208, 116 : 224, 117 : 240, 118 : 256, 119 : 280, 120 : 304, 122 : 336, 301 : 352, 302 : 368, 81 : 432, dense : 432
user feature dim: 
user_id : 64, 103 : 80, 104 : 96, 105 : 112, 109 : 128, 303 : 144, 304 : 160, 106 : 176, 107 : 192, 108 : 208, 110 : 224, dense : 224
BaselineModel(
  (item_tower): ItemTower(
    (sparse_emb): ModuleDict(
      (item_id): Embedding(58735, 96, padding_idx=0)
      (100): Embedding(7, 16, padding_idx=0)
      (101): Embedding(45, 16, padding_idx=0)
      (102): Embedding(11137, 32, padding_idx=0)
      (112): Embedding(26, 16, padding_idx=0)
      (114): Embedding(18, 16, padding_idx=0)
      (115): Embedding(188, 16, padding_idx=0)
      (116): Embedding(19, 16, padding_idx=0)
      (117): Embedding(286, 16, padding_idx=0)
      (118): Embedding(746, 16, padding_idx=0)
      (119): Embedding(1746, 24, padding_idx=0)
      (120): Embedding(1344, 24, padding_idx=0)
      (122): Embedding(11152, 32, padding_idx=0)
      (301): Embedding(51, 16, padding_idx=0)
      (302): Embedding(51, 16, padding_idx=0)
    )
    (dnn): Sequential(
      (0): Linear(in_features=432, out_features=128, bias=True)
      (1): ReLU()
      (2): Linear(in_features=128, out_features=256, bias=True)
    )
    (mm_liner): ModuleDict(
      (81): Linear(in_features=32, out_features=64, bias=True)
    )
  )
  (user_tower): UserTower(
    (sparse_emb): ModuleDict(
      (user_id): Embedding(866, 64, padding_idx=0)
      (103): Embedding(68, 16, padding_idx=0)
      (104): Embedding(3, 16, padding_idx=0)
      (105): Embedding(8, 16, padding_idx=0)
      (109): Embedding(4, 16, padding_idx=0)
      (303): Embedding(45, 16, padding_idx=0)
      (304): Embedding(506, 16, padding_idx=0)
      (106): Embedding(14, 16, padding_idx=0)
      (107): Embedding(18, 16, padding_idx=0)
      (108): Embedding(5, 16, padding_idx=0)
      (110): Embedding(3, 16, padding_idx=0)
    )
    (dnn): Sequential(
      (0): Linear(in_features=224, out_features=128, bias=True)
      (1): ReLU()
      (2): Linear(in_features=128, out_features=256, bias=True)
    )
  )
  (context_tower): ContextTower(
    (sparse_emb): ModuleDict(
      (201): Embedding(21, 32, padding_idx=0)
      (202): Embedding(9, 16, padding_idx=0)
      (203): Embedding(26, 16, padding_idx=0)
      (204): Embedding(14, 16, padding_idx=0)
      (205): Embedding(33, 16, padding_idx=0)
      (206): Embedding(21, 16, padding_idx=0)
    )
    (dnn): Sequential(
      (0): Linear(in_features=208, out_features=128, bias=True)
      (1): ReLU()
      (2): Linear(in_features=128, out_features=256, bias=True)
    )
    (item_embedding): Embedding(58735, 96, padding_idx=0)
  )
  (merge_dnn): Sequential(
    (0): Linear(in_features=256, out_features=256, bias=True)
  )
  (context_dnn): Linear(in_features=768, out_features=256, bias=True)
  (pos_embedding): Embedding(102, 256, padding_idx=0)
  (emb_dropout): Dropout(p=0.2, inplace=False)
  (casual_attention_layers): AttentionDecoder(
    (attention_layernorms): ModuleList(
      (0-7): 8 x RMSNorm((256,), eps=1e-08, elementwise_affine=True)
    )
    (attention_layers): ModuleList(
      (0-7): 8 x FlashMultiHeadAttention(
        (q_linear): Linear(in_features=256, out_features=256, bias=True)
        (k_linear): Linear(in_features=256, out_features=256, bias=True)
        (v_linear): Linear(in_features=256, out_features=256, bias=True)
        (out_linear): Linear(in_features=256, out_features=256, bias=True)
      )
    )
    (forward_layernorms): ModuleList(
      (0-7): 8 x RMSNorm((256,), eps=1e-08, elementwise_affine=True)
    )
    (forward_layers): ModuleList(
      (0-7): 8 x PointWiseFeedForward(
        (conv1): Conv1d(256, 256, kernel_size=(1,), stride=(1,))
        (dropout1): Dropout(p=0.2, inplace=False)
        (relu): ReLU()
        (conv2): Conv1d(256, 256, kernel_size=(1,), stride=(1,))
        (dropout2): Dropout(p=0.2, inplace=False)
      )
    )
    (last_layernorm): RMSNorm((256,), eps=1e-08, elementwise_affine=True)
  )
)
Loading 81 embeddings
Loaded 55290 embeddings Successfully in 0.33559632301330566 seconds
Start training
[TRAIN] {"global_step": "0/70", "grad_norm": 9.453446388244629, "loss": 10.243277549743652, "top1_correct": 0.00025971777335295646, "top10_correct": 0.002337459960176608, "entropy": 22.657440185546875, "sim_pos": 0.034314606338739395, "sim_neg": 0.015380859375, "num_neg_samples": 24599, "epoch": 1, "lr": 1e-05, "time": 0.7543304217979312}
…
