…
2025-09-04 16:21:28.028 item_id : 96, 100 : 112, 101 : 128, 102 : 160, 112 : 176, 114 : 192, 115 : 208, 116 : 224, 117 : 240, 118 : 256, 119 : 280, 120 : 304, 122 : 336, 130 : 352, 131 : 368, 132 : 384, 133 : 392, 134 : 400, 135 : 408, 136 : 416, 137 : 420, dense : 420

2025-09-04 16:21:28.338 user feature dim:

2025-09-04 16:21:28.338 user_id : 64, 103 : 80, 104 : 96, 105 : 112, 109 : 128, 106 : 144, 107 : 160, 108 : 176, 110 : 192, dense : 192

2025-09-04 16:21:28.924 BaselineModel(

2025-09-04 16:21:28.924 (item_tower): ItemTower(

2025-09-04 16:21:28.924 (sparse_emb): ModuleDict(

2025-09-04 16:21:28.924 (item_id): Embedding(4783155, 96, padding_idx=0)

2025-09-04 16:21:28.924 (100): Embedding(7, 16, padding_idx=0)

2025-09-04 16:21:28.924 (101): Embedding(52, 16, padding_idx=0)

2025-09-04 16:21:28.924 (102): Embedding(90710, 32, padding_idx=0)

2025-09-04 16:21:28.924 (112): Embedding(31, 16, padding_idx=0)

2025-09-04 16:21:28.924 (114): Embedding(21, 16, padding_idx=0)

2025-09-04 16:21:28.924 (115): Embedding(692, 16, padding_idx=0)

2025-09-04 16:21:28.924 (116): Embedding(19, 16, padding_idx=0)

2025-09-04 16:21:28.924 (117): Embedding(498, 16, padding_idx=0)

2025-09-04 16:21:28.924 (118): Embedding(1427, 16, padding_idx=0)

2025-09-04 16:21:28.924 (119): Embedding(4192, 24, padding_idx=0)

2025-09-04 16:21:28.924 (120): Embedding(3393, 24, padding_idx=0)

2025-09-04 16:21:28.924 (122): Embedding(90920, 32, padding_idx=0)

2025-09-04 16:21:28.924 (130): Embedding(257, 16, padding_idx=0)

2025-09-04 16:21:28.924 (131): Embedding(257, 16, padding_idx=0)

2025-09-04 16:21:28.924 (132): Embedding(257, 16, padding_idx=0)

2025-09-04 16:21:28.924 (133): Embedding(129, 8, padding_idx=0)

2025-09-04 16:21:28.924 (134): Embedding(129, 8, padding_idx=0)

2025-09-04 16:21:28.924 (135): Embedding(65, 8, padding_idx=0)

2025-09-04 16:21:28.924 (136): Embedding(65, 8, padding_idx=0)

2025-09-04 16:21:28.924 (137): Embedding(33, 4, padding_idx=0)

2025-09-04 16:21:28.924 )

2025-09-04 16:21:28.924 (dnn): Sequential(

2025-09-04 16:21:28.924 (0): Linear(in_features=420, out_features=128, bias=True)

2025-09-04 16:21:28.924 (1): ReLU()

2025-09-04 16:21:28.924 (2): Linear(in_features=128, out_features=256, bias=True)

2025-09-04 16:21:28.924 )

2025-09-04 16:21:28.924 (mm_liner): ModuleDict()

2025-09-04 16:21:28.924 )

2025-09-04 16:21:28.924 (user_tower): UserTower(

2025-09-04 16:21:28.924 (sparse_emb): ModuleDict(

2025-09-04 16:21:28.924 (user_id): Embedding(1001846, 64, padding_idx=0)

2025-09-04 16:21:28.924 (103): Embedding(87, 16, padding_idx=0)

2025-09-04 16:21:28.924 (104): Embedding(3, 16, padding_idx=0)

2025-09-04 16:21:28.924 (105): Embedding(8, 16, padding_idx=0)

2025-09-04 16:21:28.924 (109): Embedding(4, 16, padding_idx=0)

2025-09-04 16:21:28.924 (106): Embedding(15, 16, padding_idx=0)

2025-09-04 16:21:28.924 (107): Embedding(20, 16, padding_idx=0)

2025-09-04 16:21:28.924 (108): Embedding(5, 16, padding_idx=0)

2025-09-04 16:21:28.924 (110): Embedding(3, 16, padding_idx=0)

2025-09-04 16:21:28.924 )

2025-09-04 16:21:28.924 (dnn): Sequential(

2025-09-04 16:21:28.924 (0): Linear(in_features=192, out_features=128, bias=True)

2025-09-04 16:21:28.924 (1): ReLU()

2025-09-04 16:21:28.924 (2): Linear(in_features=128, out_features=256, bias=True)

2025-09-04 16:21:28.924 )

2025-09-04 16:21:28.924 )

2025-09-04 16:21:28.924 (context_tower): ContextTower(

2025-09-04 16:21:28.924 (sparse_emb): ModuleDict(

2025-09-04 16:21:28.924 (201): Embedding(21, 32, padding_idx=0)

2025-09-04 16:21:28.924 (202): Embedding(9, 16, padding_idx=0)

2025-09-04 16:21:28.924 (203): Embedding(26, 16, padding_idx=0)

2025-09-04 16:21:28.924 (204): Embedding(14, 16, padding_idx=0)

2025-09-04 16:21:28.924 (205): Embedding(33, 16, padding_idx=0)

2025-09-04 16:21:28.924 (206): Embedding(21, 16, padding_idx=0)

2025-09-04 16:21:28.924 (301): Embedding(4, 16, padding_idx=0)

2025-09-04 16:21:28.924 (302): Embedding(4, 16, padding_idx=0)

2025-09-04 16:21:28.924 (303): Embedding(52, 16, padding_idx=0)

2025-09-04 16:21:28.924 (401): Embedding(21, 16, padding_idx=0)

2025-09-04 16:21:28.924 (402): Embedding(21, 16, padding_idx=0)

2025-09-04 16:21:28.924 (403): Embedding(52, 16, padding_idx=0)

2025-09-04 16:21:28.924 (404): Embedding(50001, 32, padding_idx=0)

2025-09-04 16:21:28.924 )

2025-09-04 16:21:28.924 (dnn): Sequential(

2025-09-04 16:21:28.924 (0): Linear(in_features=336, out_features=128, bias=True)

2025-09-04 16:21:28.924 (1): ReLU()

2025-09-04 16:21:28.924 (2): Linear(in_features=128, out_features=256, bias=True)

2025-09-04 16:21:28.924 )

2025-09-04 16:21:28.924 (item_embedding): Embedding(4783155, 96, padding_idx=0)

2025-09-04 16:21:28.924 )

2025-09-04 16:21:28.924 (merge_dnn): Sequential(

2025-09-04 16:21:28.924 (0): Linear(in_features=256, out_features=256, bias=True)

2025-09-04 16:21:28.924 )

2025-09-04 16:21:28.924 (context_dnn): Linear(in_features=512, out_features=256, bias=True)

2025-09-04 16:21:28.924 (pos_embedding): Embedding(102, 256, padding_idx=0)

2025-09-04 16:21:28.924 (emb_dropout): Dropout(p=0.2, inplace=False)

2025-09-04 16:21:28.924 (casual_attention_layers): AttentionDecoder(

2025-09-04 16:21:28.924 (attention_layernorms): ModuleList(

2025-09-04 16:21:28.924 (0-7): 8 x RMSNorm((256,), eps=1e-08, elementwise_affine=True)

2025-09-04 16:21:28.924 )

2025-09-04 16:21:28.924 (attention_layers): ModuleList(

2025-09-04 16:21:28.924 (0-7): 8 x FlashMultiHeadAttention(

2025-09-04 16:21:28.924 (q_linear): Linear(in_features=256, out_features=256, bias=True)

2025-09-04 16:21:28.924 (k_linear): Linear(in_features=256, out_features=256, bias=True)

2025-09-04 16:21:28.924 (v_linear): Linear(in_features=256, out_features=256, bias=True)

2025-09-04 16:21:28.924 (out_linear): Linear(in_features=256, out_features=256, bias=True)

2025-09-04 16:21:28.924 )

2025-09-04 16:21:28.924 )

2025-09-04 16:21:28.924 (forward_layernorms): ModuleList(

2025-09-04 16:21:28.924 (0-7): 8 x RMSNorm((256,), eps=1e-08, elementwise_affine=True)

2025-09-04 16:21:28.924 )

2025-09-04 16:21:28.924 (forward_layers): ModuleList(

2025-09-04 16:21:28.924 (0-7): 8 x PointWiseFeedForward(

2025-09-04 16:21:28.924 (conv1): Conv1d(256, 256, kernel_size=(1,), stride=(1,))

2025-09-04 16:21:28.924 (dropout1): Dropout(p=0.2, inplace=False)

2025-09-04 16:21:28.924 (relu): ReLU()

2025-09-04 16:21:28.924 (conv2): Conv1d(256, 256, kernel_size=(1,), stride=(1,))

2025-09-04 16:21:28.924 (dropout2): Dropout(p=0.2, inplace=False)

2025-09-04 16:21:28.924 )

2025-09-04 16:21:28.924 )

2025-09-04 16:21:28.924 (last_layernorm): RMSNorm((256,), eps=1e-08, elementwise_affine=True)

2025-09-04 16:21:28.924 )

2025-09-04 16:21:28.924 )

2025-09-04 16:21:42.767 Start training

2025-09-04 16:21:45.895 [TRAIN] {"global_step": "0/52180", "grad_norm": 8.404047012329102, "loss": 10.7085542678833, "sim_pos": 0.03050140105187893, "sim_neg": 0.03271484375, "epoch": 1, "lr": 1e-05, "time": 1.2129124999046326, "gpu_mem_alloc": "8228.37 MB", "gpu_mem_max": "11440.63 MB"}
…
